Model: "eval_model"
┏━━━━━━━━━━━━━━━━━━━━━━━━━━━━━━━┳━━━━━━━━━━━━━━━━━━━━━━━━━━━┳━━━━━━━━━━━━━━━━━┳━━━━━━━━━━━━━━━━━━━━━━━━━━━━┓
┃ Layer (type)                  ┃ Output Shape              ┃         Param # ┃ Connected to               ┃
┡━━━━━━━━━━━━━━━━━━━━━━━━━━━━━━━╇━━━━━━━━━━━━━━━━━━━━━━━━━━━╇━━━━━━━━━━━━━━━━━╇━━━━━━━━━━━━━━━━━━━━━━━━━━━━┩
│ board_tokens (InputLayer)     │ (None, 65)                │               0 │ -                          │
├───────────────────────────────┼───────────────────────────┼─────────────────┼────────────────────────────┤
│ embedding (Embedding)         │ (None, 65, 64)            │             960 │ board_tokens[0][0]         │
├───────────────────────────────┼───────────────────────────┼─────────────────┼────────────────────────────┤
│ add (Add)                     │ (None, 65, 64)            │               0 │ embedding[0][0]            │
├───────────────────────────────┼───────────────────────────┼─────────────────┼────────────────────────────┤
│ multi_head_attention          │ (None, 65, 64)            │          16,640 │ add[0][0], add[0][0]       │
│ (MultiHeadAttention)          │                           │                 │                            │
├───────────────────────────────┼───────────────────────────┼─────────────────┼────────────────────────────┤
│ dropout_1 (Dropout)           │ (None, 65, 64)            │               0 │ multi_head_attention[0][0] │
├───────────────────────────────┼───────────────────────────┼─────────────────┼────────────────────────────┤
│ add_1 (Add)                   │ (None, 65, 64)            │               0 │ add[0][0], dropout_1[0][0] │
├───────────────────────────────┼───────────────────────────┼─────────────────┼────────────────────────────┤
│ layer_normalization           │ (None, 65, 64)            │             128 │ add_1[0][0]                │
│ (LayerNormalization)          │                           │                 │                            │
├───────────────────────────────┼───────────────────────────┼─────────────────┼────────────────────────────┤
│ dense (Dense)                 │ (None, 65, 256)           │          16,640 │ layer_normalization[0][0]  │
├───────────────────────────────┼───────────────────────────┼─────────────────┼────────────────────────────┤
│ dense_1 (Dense)               │ (None, 65, 64)            │          16,448 │ dense[0][0]                │
├───────────────────────────────┼───────────────────────────┼─────────────────┼────────────────────────────┤
│ dropout_2 (Dropout)           │ (None, 65, 64)            │               0 │ dense_1[0][0]              │
├───────────────────────────────┼───────────────────────────┼─────────────────┼────────────────────────────┤
│ add_2 (Add)                   │ (None, 65, 64)            │               0 │ layer_normalization[0][0], │
│                               │                           │                 │ dropout_2[0][0]            │
├───────────────────────────────┼───────────────────────────┼─────────────────┼────────────────────────────┤
│ layer_normalization_1         │ (None, 65, 64)            │             128 │ add_2[0][0]                │
│ (LayerNormalization)          │                           │                 │                            │
├───────────────────────────────┼───────────────────────────┼─────────────────┼────────────────────────────┤
│ multi_head_attention_1        │ (None, 65, 64)            │          16,640 │ layer_normalization_1[0][… │
│ (MultiHeadAttention)          │                           │                 │ layer_normalization_1[0][… │
├───────────────────────────────┼───────────────────────────┼─────────────────┼────────────────────────────┤
│ dropout_4 (Dropout)           │ (None, 65, 64)            │               0 │ multi_head_attention_1[0]… │
├───────────────────────────────┼───────────────────────────┼─────────────────┼────────────────────────────┤
│ add_3 (Add)                   │ (None, 65, 64)            │               0 │ layer_normalization_1[0][… │
│                               │                           │                 │ dropout_4[0][0]            │
├───────────────────────────────┼───────────────────────────┼─────────────────┼────────────────────────────┤
│ layer_normalization_2         │ (None, 65, 64)            │             128 │ add_3[0][0]                │
│ (LayerNormalization)          │                           │                 │                            │
├───────────────────────────────┼───────────────────────────┼─────────────────┼────────────────────────────┤
│ dense_2 (Dense)               │ (None, 65, 256)           │          16,640 │ layer_normalization_2[0][… │
├───────────────────────────────┼───────────────────────────┼─────────────────┼────────────────────────────┤
│ dense_3 (Dense)               │ (None, 65, 64)            │          16,448 │ dense_2[0][0]              │
├───────────────────────────────┼───────────────────────────┼─────────────────┼────────────────────────────┤
│ dropout_5 (Dropout)           │ (None, 65, 64)            │               0 │ dense_3[0][0]              │
├───────────────────────────────┼───────────────────────────┼─────────────────┼────────────────────────────┤
│ add_4 (Add)                   │ (None, 65, 64)            │               0 │ layer_normalization_2[0][… │
│                               │                           │                 │ dropout_5[0][0]            │
├───────────────────────────────┼───────────────────────────┼─────────────────┼────────────────────────────┤
│ layer_normalization_3         │ (None, 65, 64)            │             128 │ add_4[0][0]                │
│ (LayerNormalization)          │                           │                 │                            │
├───────────────────────────────┼───────────────────────────┼─────────────────┼────────────────────────────┤
│ multi_head_attention_2        │ (None, 65, 64)            │          16,640 │ layer_normalization_3[0][… │
│ (MultiHeadAttention)          │                           │                 │ layer_normalization_3[0][… │
├───────────────────────────────┼───────────────────────────┼─────────────────┼────────────────────────────┤
│ dropout_7 (Dropout)           │ (None, 65, 64)            │               0 │ multi_head_attention_2[0]… │
├───────────────────────────────┼───────────────────────────┼─────────────────┼────────────────────────────┤
│ add_5 (Add)                   │ (None, 65, 64)            │               0 │ layer_normalization_3[0][… │
│                               │                           │                 │ dropout_7[0][0]            │
├───────────────────────────────┼───────────────────────────┼─────────────────┼────────────────────────────┤
│ layer_normalization_4         │ (None, 65, 64)            │             128 │ add_5[0][0]                │
│ (LayerNormalization)          │                           │                 │                            │
├───────────────────────────────┼───────────────────────────┼─────────────────┼────────────────────────────┤
│ dense_4 (Dense)               │ (None, 65, 256)           │          16,640 │ layer_normalization_4[0][… │
├───────────────────────────────┼───────────────────────────┼─────────────────┼────────────────────────────┤
│ dense_5 (Dense)               │ (None, 65, 64)            │          16,448 │ dense_4[0][0]              │
├───────────────────────────────┼───────────────────────────┼─────────────────┼────────────────────────────┤
│ dropout_8 (Dropout)           │ (None, 65, 64)            │               0 │ dense_5[0][0]              │
├───────────────────────────────┼───────────────────────────┼─────────────────┼────────────────────────────┤
│ add_6 (Add)                   │ (None, 65, 64)            │               0 │ layer_normalization_4[0][… │
│                               │                           │                 │ dropout_8[0][0]            │
├───────────────────────────────┼───────────────────────────┼─────────────────┼────────────────────────────┤
│ layer_normalization_5         │ (None, 65, 64)            │             128 │ add_6[0][0]                │
│ (LayerNormalization)          │                           │                 │                            │
├───────────────────────────────┼───────────────────────────┼─────────────────┼────────────────────────────┤
│ multi_head_attention_3        │ (None, 65, 64)            │          16,640 │ layer_normalization_5[0][… │
│ (MultiHeadAttention)          │                           │                 │ layer_normalization_5[0][… │
├───────────────────────────────┼───────────────────────────┼─────────────────┼────────────────────────────┤
│ dropout_10 (Dropout)          │ (None, 65, 64)            │               0 │ multi_head_attention_3[0]… │
├───────────────────────────────┼───────────────────────────┼─────────────────┼────────────────────────────┤
│ add_7 (Add)                   │ (None, 65, 64)            │               0 │ layer_normalization_5[0][… │
│                               │                           │                 │ dropout_10[0][0]           │
├───────────────────────────────┼───────────────────────────┼─────────────────┼────────────────────────────┤
│ layer_normalization_6         │ (None, 65, 64)            │             128 │ add_7[0][0]                │
│ (LayerNormalization)          │                           │                 │                            │
├───────────────────────────────┼───────────────────────────┼─────────────────┼────────────────────────────┤
│ dense_6 (Dense)               │ (None, 65, 256)           │          16,640 │ layer_normalization_6[0][… │
├───────────────────────────────┼───────────────────────────┼─────────────────┼────────────────────────────┤
│ dense_7 (Dense)               │ (None, 65, 64)            │          16,448 │ dense_6[0][0]              │
├───────────────────────────────┼───────────────────────────┼─────────────────┼────────────────────────────┤
│ dropout_11 (Dropout)          │ (None, 65, 64)            │               0 │ dense_7[0][0]              │
├───────────────────────────────┼───────────────────────────┼─────────────────┼────────────────────────────┤
│ add_8 (Add)                   │ (None, 65, 64)            │               0 │ layer_normalization_6[0][… │
│                               │                           │                 │ dropout_11[0][0]           │
├───────────────────────────────┼───────────────────────────┼─────────────────┼────────────────────────────┤
│ layer_normalization_7         │ (None, 65, 64)            │             128 │ add_8[0][0]                │
│ (LayerNormalization)          │                           │                 │                            │
├───────────────────────────────┼───────────────────────────┼─────────────────┼────────────────────────────┤
│ layer_normalization_8         │ (None, 65, 64)            │             128 │ layer_normalization_7[0][… │
│ (LayerNormalization)          │                           │                 │                            │
├───────────────────────────────┼───────────────────────────┼─────────────────┼────────────────────────────┤
│ global_average_pooling1d      │ (None, 64)                │               0 │ layer_normalization_8[0][… │
│ (GlobalAveragePooling1D)      │                           │                 │                            │
├───────────────────────────────┼───────────────────────────┼─────────────────┼────────────────────────────┤
│ dense_8 (Dense)               │ (None, 64)                │           4,160 │ global_average_pooling1d[… │
├───────────────────────────────┼───────────────────────────┼─────────────────┼────────────────────────────┤
│ dropout_12 (Dropout)          │ (None, 64)                │               0 │ dense_8[0][0]              │
├───────────────────────────────┼───────────────────────────┼─────────────────┼────────────────────────────┤
│ eval_out (Dense)              │ (None, 1)                 │              65 │ dropout_12[0][0]           │
└───────────────────────────────┴───────────────────────────┴─────────────────┴────────────────────────────┘
 Total params: 205,249 (801.75 KB)
 Trainable params: 205,249 (801.75 KB)
 Non-trainable params: 0 (0.00 B)

